trained_lstm.pth (torch, 847417 bytes, 11 tensors)

lstm.weight_ih_l0 f4 [512, 8]
0.10807356 0.11282197 0.009722584 0.11741911 0.16754499 0.061913166 0.00028387833 0.013429874
0.047382854 -0.098229446 0.045238145 -0.016680006 0.09093475 -0.015422284 0.017987527 -0.03478049
0.096135005 0.046766207 -0.014254892 0.054602694 0.07468523 0.013592659 -0.015477852 0.080903076
-0.024282461 0.011983744 0.018918118 -0.004013764 0.13714424 -0.040504433 0.12573652 -0.039333545
0.08891174 0.039111663 -0.0071925726 0.07862317 0.03734559 0.08759568 0.022388924 8.349827e-06
0.04246117 -0.0028705637 0.057026494 0.09958677 0.02322374 -0.02266311 0.064973824 0.040772278
0.026331354 -0.071514055 -0.10787241 -0.052427076 0.011058219 0.052800972 0.004929609 0.014973124
0.05360278 0.027951421 0.09586639 -0.033789016 0.014850709 -0.038252767 0.046333097 0.0025717535
0.051482067 0.009056003 0.09865606 -0.025541183 -0.07361404 -0.031222664 0.09855404 0.05593437
0.11918097 -0.03427531 -0.052698605 -0.03118641 -0.035388477 0.06584998 0.057916317 0.112384185
-0.015084922 -0.026407491 0.077955104 -0.0024075434 0.07981849 0.0069409832 0.0758621 -0.038299453
-0.019571884 0.055526175 0.043708764 0.005020256 0.09210333 0.08142808 -0.0457423 -0.018351262
0.07193106 -0.03865287 -0.040363714 -0.094453804 -0.047724187 0.0131032355 -0.020127105 -0.06771142
0.0030247862 -0.059263136 -0.07385939 -0.0473843 -0.08491291 -0.05580594 0.08837852 0.017439226
0.0948756 -0.007077579 0.010310626 0.044239413 0.08358735 -0.018065432 0.015026123 0.03136836
-0.027588062 -0.07015651 -0.038419478 -0.09411899 -0.022562897 -0.067331396 -0.042754248 -0.105772704
0.08811269 -0.0014646903 0.09068969 0.043884017 -0.028014531 0.07248437 -0.014077843 -0.0154357655
-0.06410009 -0.077788964 0.034432527 -0.009492243 0.038931236 -0.06406362 0.07291479 -0.060648736
0.005603001 0.04153923 0.06726028 0.0942371 0.07787269 -0.051429007 0.039038192 -0.015981084
-0.03828907 -0.09605346 0.053027723 -0.09402832 -0.031409234 0.0011658797 -0.0005569524 -0.055173136
0.12027953 0.064706005 0.05117071 -0.034138847 0.0983129 0.024956848 -0.004957103 0.110016026
0.056577276 -0.008432372 -0.007508281 0.035435934 0.075719744 0.010933851 -0.020375408 0.0107994415
-0.03619906 0.06500013 0.09907946 -0.050026823 0.057608575 0.07334475 0.041463263 -0.0032612537
0.103845775 0.10758933 0.08985827 0.044010423 0.06376606 0.06971517 0.04295985 0.020403212
0.09673773 0.119331084 0.03252213 0.02303068 -0.006633299 0.032711808 0.056739923 0.067926474
-0.07695714 -0.028386055 0.0784757 0.038921732 0.039089676 -0.048731364 -0.04910081 -0.06544953
0.032075353 0.09885682 0.11569047 0.10549089 0.024001487 0.0099303285 0.04912555 0.16034906
-0.003936552 -0.038571745 0.02149662 -0.048954647 -0.1283416 0.04491808 -0.061255507 -0.0018721407
-0.084190875 0.06381042 0.07129416 0.03696648 -0.10784323 -0.08557586 -0.07193236 0.07392425
0.08674913 0.122116104 0.09134434 0.069523364 0.018836398 -0.02393219 -0.034882836 -0.043112673
0.06187759 -0.015360714 0.008684339 -0.02315796 -0.028364414 -0.038184263 -0.035556886 0.053107623
0.004493608 0.088061936 0.003435741 -0.03182759 -0.03772889 -0.014682116 -0.001100629 -0.051252622
00000000: ac55 dd3d 340f e73d 794b 1f3c 6e79 f03d
00000010: ea90 2b3e a998 7d3d 81d5 9439 f908 5c3c
00000020: 8614 423d 852c c9bd a24b 393d 82a4 88bc
00000030: 003c ba3d bfad 7cbc 945a 933c fd75 0ebd
00000040: 6ee2 c43d ec8d 3f3d 5a8d 69bc 13a7 5f3d
00000050: 92f4 983d beb3 5e3c d196 7dbc 83b0 a53d
00000060: 03ec c6bc 7757 443c 2bfa 9a3c e585 83bb
00000070: 8a6f 0c3e fae7 25bd 13c1 003e 361c 21bd
00000080: 5c17 b63d 8d33 203d acaf ebbb 2f05 a13d
00000090: b0f7 183d 5d65 b33d fa68 b73c 3c16 0c37
000000a0: c4eb 2d3d 1120 3cbb 9d94 693d 26f4 cb3d
000000b0: b63f be3c fda7 b9bc ff10 853d d500 273d
000000c0: dab4 d73c f675 92bd 36ec dcbd c6bd 56bd
000000d0: 882d 353c d545 583d 8f88 a13b d551 753c
000000e0: 978e 5b3d 61fa e43c 9955 c43d 5a66 0abd
000000f0: 6350 733c efae 1cbd c6c7 3d3d dd8a 283b
00000100: dcde 523d a15f 143c 300c ca3d be3b d1bc
00000110: f5c2 96bd acc6 ffbc b3d6 c93d 701b 653d
00000120: 2715 f43d 4464 0cbd 7eda 57bd a47a ffbc
00000130: 82f3 10bd 5bdc 863d a939 6d3d ae29 e63d
00000140: c026 77bc 8654 d8bc eda6 9f3d e0c7 1dbb
00000150: e077 a33d 3071 e33b 975d 9b3d e3df 1cbd
00000160: 3755 a0bc 6a6f 633d f607 333d f680 a43b
00000170: aca0 bc3d c4c3 a63d 475c 3bbd 6355 96bc
00000180: 9750 933d 7952 1ebd 6c54 25bd ff70 c1bd
00000190: 707a 43bd f4ae 563c 99e1 a4bc 49ac 8abd
000001a0: 7e3b 463b e7bd 72bd 9843 97bd 0a16 42bd
000001b0: d2e6 adbd c594 64bd ccff b43d b5dc 8e3c
000001c0: 234e c23d 09eb e7bb e6ed 283c 6334 353d
000001d0: d82f ab3d f5fd 93bc 2130 763c 1c7c 003d
000001e0: 5c00 e2bc 37ae 8fbd be5d 1dbd 75c1 c0bd
000001f0: d3d5 b8bc 0be5 89bd 141f 2fbd 5c9f d8bd
00000200: 6d74 b43d dafa bfba 84bb b93d babf 333d
00000210: bb7e e5bc af72 943d c1a6 66bc 4be6 7cbc
00000220: e846 83bd d24f 9fbd 1f09 0d3d 5a85 1bbc
00000230: 5c76 1f3d ca33 83bd 5954 953d cf6a 78bd
00000240: 6199 b73b 0a25 2a3d c2bf 893d 61ff c03d
00000250: b87b 9f3d 39a7 52bd 83e6 1f3d c3ea 82bc
00000260: 00d5 1cbd adb7 c4bd 9933 593d eb91 c0bd
00000270: f8a6 00bd 6ed0 983a 7100 12ba 3afd 61bd
00000280: 1d55 f63d 9584 843d 6198 513d 2dd5 0bbd
00000290: 4658 c93d 4e72 cc3c 326f a2bb 1550 e13d
000002a0: 93bd 673d ee27 0abc 0708 f6bb 4525 113d
000002b0: f412 9b3d e523 333c 54ea a6bc 24f0 303c
000002c0: 7745 14bd ca1e 853d 2cea ca3d ede8 4cbd
000002d0: f8f6 6b3d c635 963d 62d5 293d c2ba 55bb
000002e0: 18ad d43d cb57 dc3d 9d07 b83d 4644 343d
000002f0: c897 823d d4c6 8e3d abf6 2f3d a324 a73c
00000300: 6e1e c63d db63 f43d ed35 053d d6aa bc3c
00000310: 255c d9bb d1fc 053d 1f68 683d 091d 8b3d
00000320: b49b 9dbd df89 e8bc deb7 a03d 656c 1f3d
00000330: 7f1c 203d 8a9a 47bd ee1d 49bd 670a 86bd
00000340: 7261 033d 7275 ca3d 20ef ec3d 9c0b d83d
00000350: c49e c43c d1b2 223c df37 493d 8b32 243e
00000360: 31fe 80bb 68fd 1dbd ae19 b03c ab84 48bd
00000370: fb6b 03be 05fc 373d 0ee7 7abd 9e62 f5ba
00000380: 446c acbd 0aaf 823d ac02 923d 2a6a 173d
00000390: e9dc dcbd 6642 afbd 4651 93bd 9965 973d
000003a0: 87a9 b13d 0218 fa3d be12 bb3d 4462 8e3d
000003b0: ca4e 9a3c 710d c4bc 4ee1 0ebd ea96 30bd
000003c0: 5b73 7d3d 81ab 7bbc c248 0e3c c3b5 bdbc
000003d0: 7d5c e8bc 1a67 1cbd 19a4 11bd 6187 593d
000003e0: 1e3f 933b d159 b43d 2b2a 613b a65d 02bd
000003f0: 9c89 1abd 428d 70bc fb42 90ba 45ee 51bd

lstm.weight_hh_l0 f4 [512, 128]
0.091237545 0.033218443 0.1167115 0.12954648 0.022650495 0.0013236247 0.01159917 0.083255604
0.038390808 -0.019802079 -0.028626267 -0.015630811 0.05208999 0.0015518474 -0.12590235 -0.016878717
-0.03852307 0.04152561 -0.0063620703 -0.06058523 0.07997164 -0.00215646 0.005569728 -0.030113524
0.051172417 -0.083882794 -0.17050312 -0.0013835786 0.0126904175 -0.07029324 0.016479693 -0.075247474
-0.07736366 -0.0781652 -0.0047702305 -0.08154759 -0.024244687 0.119110934 -0.03412658 -0.031285692
0.058474455 0.032436706 0.038098495 -0.10362864 0.01554823 -0.07998168 0.054639585 -0.047136113
-0.0038550128 -0.07013572 0.12049061 0.15679094 -0.11243524 0.04026676 0.09545435 0.043975484
0.06520434 -0.09955356 0.0589349 0.10997177 -0.04612833 -0.049098533 0.047145717 0.1297181
0.08551481 0.1179049 0.04445549 -0.0069612837 0.14883462 0.10810135 0.093282156 -0.022861501
0.045357753 -0.033578176 -0.07806965 -0.05573602 -0.14318551 -0.1301431 -0.08761203 0.064578004
0.04534753 0.029920239 -0.00095954136 0.12624933 0.053900152 0.15107504 0.11928298 -0.024171062
0.015398412 0.07671283 0.038524173 -0.03080946 -0.059346832 0.019823704 0.121871695 0.11481066
0.04265031 0.041384038 -0.07113526 0.13369226 0.014446375 -0.03224471 -0.06947201 -0.051094197
-0.008567336 -0.028296813 -0.099185064 -0.071652666 0.04604327 0.05821023 -0.20187622 -0.06498747
0.040747497 -0.040542323 -0.07422176 -0.13240136 0.0667625 0.096736565 -0.03694835 0.09193993
0.17324238 -0.041214 -0.0040037953 -0.048635855 -0.039942343 0.030339241 -0.00016283906 -0.018400555
-0.049491066 -0.06937851 0.05124162 0.005775419 -0.0057986635 -0.075298816 0.066198744 -0.07238142
0.024484396 -0.026330523 -0.013988217 0.039481908 -0.024578271 -0.023898134 0.084850535 -0.07585896
0.043913953 -0.02622805 -0.036198016 0.0840403 0.0042097485 -0.06709366 0.09136569 -0.015661137
0.09913689 -0.01097018 0.083663225 0.033816688 -0.007095545 0.051714458 -0.01251917 -0.029166142
0.059609517 0.06868849 -0.0139991045 0.090798646 0.016998388 -0.06574074 -0.052196436 0.059605926
-0.043153692 0.07221204 -0.09068599 0.021458805 -0.058188036 0.048191212 0.06994785 0.036695126
-0.024882922 -0.06846766 -0.039669666 -0.07453152 0.102602676 -0.0372035 0.035991877 0.08281488
0.016552253 -0.054836724 -0.031509236 -0.044866998 0.04923296 -0.012237096 -0.014729319 0.06518945
0.011097428 -0.00791578 -0.029995896 0.055369414 -0.019850641 -0.027587576 0.010036401 -0.06590916
0.01398565 0.02972412 -0.07414614 -0.034495633 0.06394981 0.014829216 0.01330932 -0.0022962035
-0.045389775 0.089165285 -0.00016804968 -0.048559118 0.05110727 -0.07698775 -0.03256092 -0.017820036
-0.04353436 0.041148484 -0.06198931 -0.018218217 -0.021020932 0.07157551 0.025142657 -0.08746732
0.03925126 0.0069829426 0.10522987 0.030504199 -0.05925449 0.089125 -0.0059919553 -0.016071491
0.03163853 0.09780598 0.03211803 -0.07557348 -0.039792404 0.06624422 -0.036082767 -0.04756642
-0.10541077 -0.043781593 -0.04788871 0.035668302 0.019684073 0.08472293 0.071242616 -0.011505605
0.012802086 0.0436701 -0.07595554 0.037984718 -0.074868254 0.037860613 -0.04197054 0.028392328
00000000: c0da ba3d 1010 083d 7006 ef3d d5a7 043e
00000010: 888d b93c 7a7d ad3a 720a 3e3c ea81 aa3d
00000020: ae3f 1d3d f837 a2bc a281 eabc 300c 80bc
00000030: 505c 553d 5c67 cb3a 8cec 00be 3c45 8abc
00000040: 5eca 1dbd c216 2a3d ea78 d0bb 3828 78bd
00000050: 2cc8 a33d 6553 0dbb 4482 b63b a3b0 f6bc
00000060: 2b9a 513d beca abbd 5f98 2ebe 3259 b5ba
00000070: 78eb 4f3c e7f5 8fbd 6c00 873c 591b 9abd
00000080: d770 9ebd 1415 a0bd 984f 9cbb 6c02 a7bd
00000090: cb9c c6bc 6ff0 f33d 50c8 0bbd 6d25 00bd
000000a0: e982 6f3d 5adc 043d 2b0d 1c3d 413b d4bd
000000b0: 01be 7e3c 6fcd a3bd c2cd 5f3d cc11 41bd
000000c0: 62a4 7cbb 51a3 8fbd c8c3 f63d ce8d 203e
000000d0: 7244 e6bd c2ee 243d 927d c33d a31f 343d
000000e0: da89 853d bde2 cbbd b965 713d e138 e13d
000000f0: 0ff1 3cbd 8b1b 49bd de1b 413d d2d4 043e
00000100: 6422 af3d 2078 f13d f616 363d 7b1b e4bb
00000110: 1a68 183e 3e64 dd3d b70a bf3d 0b48 bbbc
00000120: 0dc9 393d 4589 09bd fbe2 9fbd 744b 64bd
00000130: 399f 12be 3c44 05be f06d b3bd 7941 843d
00000140: 55be 393d 4a1b f53c bb89 7bba 8147 013e
00000150: 68c6 5c3d 6ab3 1a3e a34a f43d 6402 c6bc
00000160: 9f49 7c3c 9e1b 9d3d 86cb 1d3d 1f64 fcbc
00000170: aa15 73bd 5265 a23c de97 f93d da21 eb3d
00000180: 17b2 2e3d 4f82 293d 5daf 91bd a0e6 083e
00000190: 7db0 6c3c 0713 04bd 5747 8ebd 2648 51bd
000001a0: 035e 0cbc b8ce e7bc 8a21 cbbd a2be 92bd
000001b0: de97 3c3d da6d 6e3d a4b8 4ebe 2718 85bd
000001c0: d9e6 263d b50f 26bd 9401 98bd 3994 07be
000001d0: c7ba 883d d21d c63d 2757 17bd 014b bc3d
000001e0: 7366 313e 03d0 28bd 4532 83bb 6436 47bd
000001f0: 959a 23bd 008a f83c c7bf 2ab9 c3bc 96bc
00000200: 25b7 4abd 5216 8ebd bce2 513d ba3f bd3b
00000210: b702 bebb 4436 9abd 3593 873d b63c 94bd
00000220: 8093 c83c 1cb3 d7bc d62e 65bc c8b7 213d
00000230: 5f58 c9bc 05c6 c3bc 1ec6 ad3d f15b 9bbd
00000240: 1edf 333d 35dc d6bc 5f44 14bd 521d ac3d
00000250: eef1 893b 6768 89bd ef1d bb3d c94b 80bc
00000260: 4808 cb3d 45bc 33bc a057 ab3d 5e83 0a3d
00000270: bf81 e8bb 8ad2 533d 341d 4dbc d5ed eebc
00000280: 1c29 743d 8dac 8c3d 805c 65bc a4f4 b93d
00000290: 3440 8b3c 15a3 86bd eecb 55bd 5825 743d
000002a0: edc1 30bd e8e3 933d 94b9 b9bd 60ca af3c
000002b0: 9456 6ebd 2664 453d d240 8f3d a14d 163d
000002c0: 45d7 cbbc c638 8cbd a97c 22bd fba3 98bd
000002d0: 5a21 d23d b262 18bd 386c 133d d99a a93d
000002e0: 9798 873c 799c 60bd d40f 01bd 75c6 37bd
000002f0: 80a8 493d 1a7e 48bc 3e53 71bc 0c82 853d
00000300: fdd1 353c 30b1 01bc f4b9 f5bc 0acb 623d
00000310: d09d a2bc 57ff e1bc b86f 243c 62fb 86bd
00000320: 1124 653c ff7f f33c eed9 97bd 4b4b 0dbd
00000330: 1ef8 823d 3df6 723c 560f 5a3c e77b 16bb
00000340: a1ea 39bd 4a9c b63d 7e36 30b9 ede5 46bd
00000350: db55 513d c1ab 9dbd 995e 05bd 53fb 91bc
00000360: 1651 32bd 508b 283d 81e8 7dbd 5f3e 95bc
00000370: 1734 acbc 2e96 923d f9f7 cd3c 1122 b3bd
00000380: eec5 203d 2bd1 e43b c282 d73d f1e3 f93c
00000390: d6b4 72bd 2b87 b63d 2a58 c4bb 5ca8 83bc
000003a0: 6797 013d 804e c83d 328e 033d 45c6 9abd
000003b0: 5cfd 22bd 0dab 873d 86cb 13bd 02d5 42bd
000003c0: 9ae1 d7bd 5454 33bd f426 44bd ed18 123d
000003d0: 7e40 a13c 3783 ad3d a6e7 913d 0182 3cbc
000003e0: d7bf 513c 6bdf 323d 948e 9bbd dd95 1b3d
000003f0: 8754 99bd bb13 1b3d 4de9 2bbd 0797 e83c

lstm.bias_ih_l0 f4 [512]
-0.053785566 0.08213777 -0.020176172 -0.028510956 -0.014373382 -0.057092562 -0.07422743 -0.015319001
-0.042092092 -0.07299123 -0.025418539 0.011342214 0.054656357 0.06794789 0.048101954 -0.060953163
0.026040386 -0.08624481 0.020318786 -0.036602173 0.013450402 0.05595422 0.017868329 0.07115303
-0.0283382 0.080383815 0.0752641 0.03575638 -0.080666184 0.094923876 0.051698435 0.027846308
0.058392465 0.019208923 -0.033668455 -0.07524523 -0.004917931 -0.036002576 0.05793439 -0.019889511
0.031178437 -0.009555247 -0.0066058347 0.08890085 0.05641745 0.0056676404 -0.079567686 -0.06391509
0.07120349 0.02662172 -0.03680636 0.0043057683 0.11846076 -0.0062705833 0.07790648 0.024200877
0.018686054 0.037695855 -0.006492664 0.016506283 0.022655247 -0.07506157 -0.038856674 -0.040311914
-0.051768444 0.14816043 0.07228601 0.08116089 0.08827463 0.015414845 0.02057587 0.004270739
0.087591454 0.0793081 -0.00082274986 -0.06549921 0.033751253 0.053601697 0.010609323 0.065307155
0.062206693 -0.056502786 0.08885661 -0.06469749 0.010904556 -0.058508754 0.05722827 -0.009974882
0.027842242 -0.012435107 -0.043579996 0.07009509 -0.036187705 0.07627786 -0.073801965 -0.09591784
-0.08622371 0.029626053 0.026101347 -0.008838641 0.020148765 -0.06777266 -0.07032938 0.015347661
-0.047703125 -0.05861652 0.01241748 -0.032171622 -0.017138692 0.046128847 0.083743095 0.04434726
0.005168814 0.012554092 0.045755424 -0.029737316 0.074264005 0.027759328 -0.052303832 0.029185517
0.1812593 -0.051305022 -0.03934787 0.039222572 0.035363898 0.12894925 -0.034229122 0.08785015
0.054904494 0.033614095 -0.0025167326 -0.053227626 -0.0793762 0.041989587 0.0439677 0.024231154
0.033051573 0.0900694 -0.06789701 -0.06556538 -0.030096708 0.032115087 0.08309281 0.066131815
0.0006147469 0.037543513 0.07277515 0.033756934 -0.015602265 -0.031222964 -0.028164312 0.09405593
-0.07738855 0.010589033 -0.019782528 -0.03256365 -0.063036874 -0.062582634 -0.004023915 -0.054487236
0.03547582 -0.067344606 -0.028321505 -0.015859779 0.03312436 0.047840513 0.06252543 -0.0018713817
-0.0880255 -0.033531792 0.013078953 0.035764232 0.08262941 -0.06250824 -0.028162032 0.018040786
0.029286012 -0.029605549 0.011745147 0.06966126 0.0043912046 0.00031137062 0.0035165006 -0.057265915
-0.098657325 0.053605795 0.033884138 -0.053869147 0.007525964 -0.047342964 0.07493575 -0.04130473
0.07464464 0.0770745 0.007099426 0.026171563 0.038330957 0.039059527 -0.042684883 -0.035244998
-0.044284508 0.013413111 -0.049546372 0.04082103 -0.036069803 0.08747086 0.03484362 -0.083191395
0.029653134 0.030819211 -0.05837146 0.012198035 0.027136214 -0.09756556 -0.07704467 0.0029799433
0.029073292 -0.052372307 -0.047102395 -0.038243517 0.020327441 -0.032164995 -0.042536996 -0.00973636
-0.017037962 -0.017160319 0.07101066 -0.06236373 -0.014433034 -0.013758183 0.037260357 -0.04983401
-0.00434124 -0.08445325 0.04799721 0.010090668 -0.016172774 -0.076193236 0.05495894 -0.010168766
0.092146516 -0.064473495 -0.0017790138 -0.054004237 -0.05970938 -0.07000025 0.064086735 -0.021588437
-0.023260267 -0.016606014 -0.014082861 -0.0038897803 -0.06606119 -0.072106615 0.024987465 -0.0042340946
00000000: 414e 5cbd d937 a83d 8048 a5bc cf8f e9bc
00000010: 557e 6bbc e4d9 69bd 8d04 98bd 8cfc 7abc
00000020: c268 2cbd 6d7c 95bd 8a3a d0bc b2d4 393c
00000030: 58df 5f3d 4328 8b3d 8e06 453d 06aa 79bd
00000040: a652 d53c 1ea1 b0bd 9573 a63c 29ec 15bd
00000050: 135f 5c3c 4130 653d 9a60 923c aeb8 913d
00000060: 8325 e8bc 45a0 a43d 1124 9a3d 4875 123d
00000070: 5034 a5bd 7367 c23d bdc1 533d f11d e43c
00000080: f02c 6f3d 085c 9d3c efe7 09bd 2c1a 9abd
00000090: 9826 a1bb 7077 13bd 9c4c 6d3d 54ef a2bc
000000a0: ec69 ff3c 9c8d 1cbc c275 d8bb a611 b63d
000000b0: fc15 673d 9db7 b93b 62f4 a2bd eae5 82bd
000000c0: 23d3 913d cb15 da3c 44c2 16bd 6717 8d3b
000000d0: 8e9b f23d 7779 cdbb 6f8d 9f3d eb40 c63c
000000e0: 7f13 993c f866 1a3d 6ac0 d4bb 2f38 873c
000000f0: 7f97 b93c e1b9 99bd 2d28 1fbd 1b1e 25bd
00000100: 260b 54bd 5eb7 173e b00a 943d ae37 a63d
00000110: 54c9 b43d 8c8e 7c3c ba8e a83c 8ef1 8b3b
00000120: 2663 b33d 496c a23d cfad 57ba 7324 86bd
00000130: c13e 0a3d 748d 5b3d bad2 2d3c c2bf 853d
00000140: 72cc 7e3d 776f 67bd 74fa b53d 1e80 84bd
00000150: 06a9 323c e0a6 6fbd 3168 6a3d b06d 23bc
00000160: 6a15 e43c 9ebc 4bbc f080 32bd 048e 8f3d
00000170: 8f39 14bd 9137 9c3d 7c25 97bd 9370 c4bd
00000180: 0e96 b0bd 56b2 f23c 7ed2 d53c f3cf 10bc
00000190: 060f a53c 64cc 8abd da08 90bd c274 7b3c
000001a0: 5a64 43bd e017 70bd b072 4b3c 64c6 03bd
000001b0: 7166 8cbc 9af1 3c3d 8081 ab3d 79a5 353d
000001c0: 285f a93b aeaf 4d3c 0a6a 3b3d ac9b f3bc
000001d0: ba17 983d 8867 e33c 8b3c 56bd 7716 ef3c
000001e0: 0a9c 393e 3725 52bd 3b2b 21bd d9a7 203d
000001f0: bcd9 103d 460b 043e d633 0cbd c8ea b33d
00000200: 89e3 603d efae 093d c4ef 24bb 3605 5abd
00000210: fd8f a2bd 46fd 2b3d 7a17 343d 6a80 c63c
00000220: 1661 073d 4e76 b83d 960d 8bbd 2447 86bd
00000230: 5f8d f6bc 1c8b 033d 902c aa3d 1e70 873d
00000240: f726 213a 3ac7 193d 230b 953d b644 0a3d
00000250: a4a0 7fbc 4dc7 ffbc d8b8 e6bc 65a0 c03d
00000260: e37d 9ebd a07d 2d3c f80e a2bc 7661 05bd
00000270: 7a19 81bd 532b 80bd 0cdb 83bb 022e 5fbd
00000280: 184f 113d f8eb 89bd 8002 e8bc 5eec 81bc
00000290: 69ad 073d 6af4 433d 550d 803d 2649 f5ba
000002a0: b746 b4bd a258 09bd 1b49 563c 847d 123d
000002b0: 9c39 a93d 5204 80bd 10b4 e6bc 45ca 933c
000002c0: 38e9 ef3c 5687 f2bc b86e 403c 90aa 8e3d
000002d0: 18e4 8f3b 753f a339 1775 663b aa8f 6abd
000002e0: da0c cabd c091 5b3d 18ca 0a3d e5a5 5cbd
000002f0: 5d9c f63b b2ea 41bd ea77 993d 262f 29bd
00000300: 4adf 983d 3cd9 9d3d 4da2 e83b bf65 d63c
00000310: ec00 1d3d e2fc 1f3d 58d6 2ebd 0f5d 10bd
00000320: ac63 35bd aac2 5b3c 23f1 4abd f433 273d
00000330: eebd 13bd ec23 b33d 2fb8 0e3d 4060 aabd
00000340: 21eb f23c 9278 fc3c e916 6fbd 44da 473c
00000350: c44c de3c 74d0 c7bd 99c9 9dbd 274b 433b
00000360: 1d2b ee3c 5884 56bd 71ee 40bd 3ca5 1cbd
00000370: bc85 a63c 71bf 03bd 463b 2ebd 4185 1fbc
00000380: 3293 8bbc cc93 8cbc 096e 913d 1c71 7fbd
00000390: 8878 6cbc 016a 61bc 519e 183d bf1e 4cbd
000003a0: f640 8ebb d3f5 acbd b998 443d 5453 253c
000003b0: c47c 84bc 330b 9cbd a01c 613d e59a 26bc
000003c0: 50b7 bc3d ae0a 84bd cc2d e9ba 8c33 5dbd
000003d0: d391 74bd 4b5c 8fbd e83f 833d 3cda b0bc
000003e0: 518c bebc 5609 88bc cdbb 66bc afeb 7ebb
000003f0: 174b 87bd a2ac 93bd 83b2 cc3c 29be 8abb

lstm.bias_hh_l0 f4 [512]
-0.044722423 -0.05585615 -0.014644173 0.057824202 -0.07257859 -0.0039101704 -0.025675703 0.08971759
0.0452315 0.045826808 -0.06484456 -0.049231566 -0.07051086 0.075734675 0.027020717 -0.028003272
0.04567775 -0.00064214645 0.07739701 0.0073433095 -0.030882463 -0.01681165 0.082109876 0.0076139756
0.07609604 -0.061766613 0.09788029 -0.06474295 -0.072908066 0.018058278 -0.022393487 -0.028342675
0.0564596 -0.010958139 -0.070395015 0.0050949403 -0.036569927 -0.027056294 -0.052184895 0.061249107
0.10349916 -0.07653689 -0.00953435 0.0003949628 0.033288706 -0.03991369 -0.06554817 0.061141897
-0.07933974 -0.05285678 -0.0070094448 0.014555621 -0.01358158 -0.015297267 -0.08259452 -0.09608421
0.09822563 0.059454944 0.042382058 0.09124481 -0.0077826437 0.003360169 0.008644522 0.01974728
0.0105513735 0.026875889 -0.041940514 0.087269284 -0.036309633 0.050553557 0.0361581 0.05630837
0.061354004 -0.075701654 -0.035775162 0.06548137 0.051008172 -0.030910527 0.04594521 0.053537514
0.05510822 -0.028095422 0.07077443 -0.037166964 -0.034347247 -0.083000734 -0.0222086 -0.03939587
-0.024253631 0.04779115 0.081970796 -0.061639275 0.05398734 0.037651572 -0.073622264 0.019594483
-0.05389561 0.0100835655 0.0440943 0.021841245 0.050297692 0.029103149 0.0007233195 0.041073624
-0.02390784 0.0853827 -0.0422276 -0.0046291007 0.08154999 -0.03425816 0.011698404 0.044386584
0.10881956 -0.012908354 -0.07918201 0.04417794 -0.033685524 -0.06657676 -0.040725943 0.09403418
0.106717065 0.0382885 -0.068622634 0.04286999 -0.052495375 0.048989173 0.049203966 0.018463586
0.016546603 -0.04212019 -0.028219793 -0.0451742 0.07024326 -0.020977063 -0.08247168 -0.049961034
0.05058502 -0.07879869 -0.019798152 -0.06498929 -0.034941662 -0.08129492 -0.06477463 -0.06516636
-0.0032477996 0.07080231 -0.08500218 -0.052672368 0.0701828 0.06257158 -0.086325236 -0.0036553217
-0.054503627 0.0035797798 0.008988522 -0.097027406 -0.021134218 -0.08079501 -0.062004216 -0.00344081
-0.04363381 0.054275244 0.052831654 0.0075685005 -0.029536925 -0.09119961 -0.050200917 0.003673805
0.072887264 -0.086290866 -0.013401689 0.06897148 0.087468505 0.06673887 0.034940522 -0.024225155
-0.10041153 -0.020194747 -0.09850195 -0.039134882 -0.0482469 0.07801588 0.058423515 0.030577848
0.061685618 0.0420739 0.05561346 0.027255097 -0.011749093 -0.05193724 0.026966305 0.017206408
0.0640455 -0.025924062 -0.04248806 -0.03732715 -0.053705394 -0.038242362 -0.016650459 0.05838397
-0.087102525 0.07147698 0.017837044 -0.012046031 -0.082831815 -0.04153219 -0.07348593 0.03961968
0.05453665 -0.057891864 -0.07771648 -0.0077124476 0.054661527 0.002961957 -0.06592719 -0.076955736
0.04999512 0.031985864 -0.07857036 -0.06659339 0.016177494 -1.3785452e-05 -0.05161343 -0.016200377
-0.06566071 0.058179967 0.03344996 0.064042635 -0.08284412 -0.029897192 0.0287518 0.007224977
0.02374309 -0.07179486 -0.017180135 -0.042022873 0.04398078 0.0014837815 0.01207573 -0.0048681325
0.006955653 -0.08550527 0.0011964926 0.072378755 0.06999822 -0.039591838 -0.008984585 -0.051149607
0.013536988 0.023934146 -0.044370443 -0.050180074 -0.07635521 0.059814814 -0.04129026 -0.0808681
00000000: dc2e 37bd 6bc9 64bd 1dee 6fbc 12d9 6c3d
00000010: 15a4 94bd e320 80bb da55 d2bc dbbd b73d
00000020: aa44 393d e4b4 3b3d 3acd 84bd 0aa7 49bd
00000030: ff67 90bd c81a 9b3d 8d5a dd3c 1e67 e5bc
00000040: 9818 3b3d b855 28ba 5382 9e3d 25a0 f03b
00000050: 38fd fcbc 96b8 89bc 3929 a83d a87e f93b
00000060: 3ed8 9b3d fdfe 7cbd 7675 c83d f497 84bd
00000070: d350 95bd f4ee 933c 8c72 b7bc e62e e8bc
00000080: 2e42 673d c489 33bc 432b 90bd 75f3 a63b
00000090: 59ca 15bd 29a5 ddbc d4bf 55bd 58e0 7a3d
000000a0: 5ef7 d33d 5fbf 9cbd f635 1cbc 0213 cf39
000000b0: bd59 083d 8a7c 23bd 1e3e 86bd ed6f 7a3d
000000c0: e07c a2bd 5a80 58bd 7caf e5bb b37a 6e3c
000000d0: 4685 5ebc 63a1 7abc 5127 a9bd ccc7 c4bd
000000e0: 852a c93d 0787 733d cf98 2d3d 8fde ba3d
000000f0: 8c05 ffbb 4836 5c3b c1a1 0d3c 0cc5 a13c
00000100: abdf 2c3c d32a dc3c d1c9 2bbd 3dba b23d
00000110: 69b9 14bd 3f11 4f3d 841a 143d 9ba3 663d
00000120: 564e 7b3d 7809 9bbd fa88 12bd 191b 863d
00000130: f2ed 503d 1338 fdbc 0b31 3c3d 274a 5b3d
00000140: 28b9 613d 5f28 e6bc 2ff2 903d 633c 18bd
00000150: b3af 0cbd 4afc a9bd cfee b5bc 905d 21bd
00000160: 8daf c6bc a7c0 433d 4ee0 a73d 7779 7cbd
00000170: d421 5d3d 8938 1a3d 45c7 96bd 9c84 a03c
00000180: a5c1 5cbd 8a35 253c 3a9c 343d 69ec b23c
00000190: f404 4e3d ba69 ee3c 269d 3d3a d13c 283d
000001a0: 60da c3bc 20dd ae3d d9f6 2cbd b6af 97bb
000001b0: ae03 a73d 4952 0cbd aaaa 3f3c b5ce 353d
000001c0: cadc de3d 907d 53bc 2d2a a2bd edf3 343d
000001d0: d5f9 09bd 6559 88bd 3fd0 26bd fe94 c03d
000001e0: 7a8e da3d 67d4 1c3d 068a 8cbd 7198 2f3d
000001f0: 6405 57bd dfa8 483d 198a 493d f240 973c
00000200: be8c 873c 3886 2cbd 322d e7bc 9508 39bd
00000210: b3db 8f3d 17d8 abbc eae6 a8bd f1a3 4cbd
00000220: 3d32 4f3d 3561 a1bd bc2f a2bc 1b19 85bd
00000230: fd1e 0fbd f37d a6bd 90a8 84bd f175 85bd
00000240: 09d9 54bb cd00 913d 9f15 aebd fbbe 57bd
00000250: 00bc 8f3d 8725 803d 49cb b0bd 1f8e 6fbb
00000260: 323f 5fbd bd9a 6a3b 9844 133c 4eb6 c6bd
00000270: ab21 adbc db77 a5bd 22f8 7dbd 367f 61bb
00000280: 5eb9 32bd b84f 5e3d 0166 583d 2f01 f83b
00000290: 6cf7 f1bc dcc6 babd 7a9f 4dbd 38c4 703b
000002a0: eb45 953d 44b9 b0bd c292 5bbc eb40 8d3d
000002b0: b022 b33d 64ae 883d cb1d 0f3d d573 c6bc
000002c0: 8fa4 cdbd 746f a5bc 64bb c9bd e64b 20bd
000002d0: 8b9e 45bd cac6 9f3d 7f4d 6f3d 657e fa3c
000002e0: 0faa 7c3d af55 2c3d f0ca 633d 1546 df3c
000002f0: 457f 40bc 25bc 54bd 71e8 dc3c 74f4 8c3c
00000300: 492a 833d b35e d4bc f607 2ebd 5be4 18bd
00000310: 30fa 5bbd 06a4 1cbd 8b66 88bc 0824 6f3d
00000320: cf62 b2bd 8662 923d fe1e 923c b75c 45bc
00000330: baa3 a9bd a81d 2abd cb7f 96bd 3f48 223d
00000340: d361 5f3d 0520 6dbd d129 9fbd b3b8 fcbb
00000350: c4e4 5f3d 641d 423b d604 87bd f89a 9dbd
00000360: afc7 4c3d 9c03 033d 7fe9 a0bd 1e62 88bd
00000370: aa86 843c 1148 67b7 9b68 53bd a7b6 84bc
00000380: 1f79 86bd 1e4e 6e3d d302 093d c928 833d
00000390: 2eaa a9bd f5ea f4bc e588 eb3c 80bf ec3b
000003a0: de80 c23c 2f09 93bd 5bbd 8cbc 2d20 2cbd
000003b0: 3125 343d 727b c23a 48d9 453c db84 9fbb
000003c0: 3fec e33b 631d afbd a1d3 9c3a 503b 943d
000003d0: 3a5b 8f3d 0d2b 22bd 1534 13bc 4082 51bd
000003e0: 3eca 5d3c 8b11 c43c c8bd 35bd 9f89 4dbd
000003f0: 1f60 9cbd 6100 753d fa1f 29bd 2d9e a5bd

lstm.weight_ih_l1 f4 [512, 128]
0.03177678 -0.004593577 0.017476557 0.013328125 0.096740946 -0.05115772 0.09748551 -0.020018686
0.07687064 -0.040625326 0.038660858 0.12436186 0.026721084 0.0096748825 -0.047483783 -0.11803569
-0.13837473 -0.0012796966 0.01882503 -0.082268365 0.014139796 -0.110339426 -0.039663736 -0.08701528
-0.13263078 -0.043551788 -0.20714399 -0.09576539 0.05777243 -0.1188576 0.086597756 -0.072836086
-0.12654336 -0.065528944 0.07514315 -0.08262901 0.022490766 0.1371593 0.115871325 -0.015753264
0.13621391 0.020177739 -0.011598175 -0.11678299 -0.026255708 0.061507083 0.0861164 -0.032253288
0.021475533 -0.0946101 -0.10368679 -0.011485959 -0.04467515 -0.016463162 -0.0668726 0.01759429
0.16524564 -0.11102296 0.053811476 0.15491009 0.05604973 0.07801852 0.11009161 0.091760285
0.040604856 0.13283868 -0.063871466 0.112241864 0.10296566 0.0562982 0.041484766 0.024382928
0.0423565 0.06299533 -0.090053074 0.01922112 -0.07933939 0.037871238 0.009608157 0.0619031
-0.08488924 -0.01773856 0.018032989 0.06369245 -0.014401583 0.15890035 0.023555474 0.15179296
-0.0020675845 0.11572932 0.03408048 0.0610058 -0.06743077 -0.00039150147 0.12542196 -0.13539939
0.076313846 -0.06186673 -0.17291872 0.019631054 -0.0062047313 -0.062472682 -0.08206247 0.030352589
-0.00515263 -0.10364201 0.071090624 -0.03198093 0.08855194 0.1312567 -0.18070467 -0.013164083
0.13793337 -0.03949085 -0.06709785 -0.06709601 0.1055582 0.008873784 -0.045519665 0.052569136
-0.20151818 -0.029575536 -0.043048684 0.0094779 0.01573749 0.10801297 -0.0050202934 0.013172272
0.030554626 -0.013903116 -0.045765195 -0.04246249 -0.04926489 0.0011970801 0.06384455 -0.024971498
-0.08133114 0.023224903 0.0729221 -0.063767955 0.05177137 0.0042090537 0.016456613 0.078435965
0.06586122 -0.027038982 -0.025447914 -0.102875434 -0.077734396 -0.022293374 -0.056223582 -0.010902996
-0.064269215 0.057211526 -0.053768985 -0.020872504 -0.004295415 -0.036156733 0.0282599 0.077896096
-0.03953959 0.084705494 -0.025024531 0.064051285 -0.042320356 0.060985174 0.003212811 0.08049938
0.04256221 -0.06497648 0.074342266 -0.043607626 -0.080926165 0.04146949 -0.0006356644 -0.044703446
-0.055228468 -0.035950523 -0.0017400424 0.06310853 0.012672508 0.009977818 0.08312673 0.024589147
0.024211263 -0.068960324 0.02084376 0.0045106844 -0.034470983 0.03615483 -0.0121364305 -0.011269926
0.06336656 -0.013045484 0.020696612 -0.04611278 0.06782149 -0.015114148 -0.07403857 -0.0333942
-0.05594484 0.07706023 -0.031332 0.055409238 -0.07463201 0.08102892 -0.07114001 -0.07923492
-0.06772948 0.068449005 0.016275277 -0.04998198 0.071257144 -0.03248832 0.07747371 0.08429422
-0.022175748 0.027237093 -0.08041689 -0.0057598264 -0.042455602 -0.060867164 -0.06552352 -0.049747128
0.011932317 0.0751026 -0.09338165 -0.06965732 0.08966969 0.0064048334 -0.014164017 -0.016362915
-0.08171486 0.017554333 -0.003931028 -0.068515606 0.027345508 -0.060676623 0.038605224 -0.061935462
0.076339915 -0.08305491 0.04713434 0.021947317 -0.024834098 -0.08919313 -0.07647877 0.07966703
-0.00374576 -0.07707304 0.051525097 0.081014186 -0.02446913 0.042437114 0.041630775 0.02592713
00000000: 5e28 023d b785 96bb ff2a 8f3c 355e 5a3c
00000010: 1e20 c63d c28a 51bd 7ca6 c73d 3afe a3bc
00000020: 5b6e 9d3d be66 26bd d95a 1e3d 6eb1 fe3d
00000030: 2de6 da3c 6683 1e3c 5b7e 42bd b2bc f1bd
00000040: 1bb2 0dbe 7ebb a7ba f336 9a3c 517c a8bd
00000050: 9aaa 673c a3f9 e1bd 7176 22bd 1135 b2bd
00000060: 5dd0 07be 5c63 32bd 8e1d 54be a520 c4bd
00000070: c9a2 6c3d 9d6b f3bd 2a5a b13d 162b 95bd
00000080: 9594 01be 0a34 86bd a7e4 993d 6639 a9bd
00000090: 8e3e b83c 7d73 0c3e f24d ed3d fd0c 81bc
000000a0: a97b 0b3e c94b a53c 4606 3ebc ec2b efbd
000000b0: 3616 d7bc daee 7b3d cc5d b03d 061c 04bd
000000c0: 75ed af3c f1c2 c1bd bd59 d4bd 9b2f 3cbc
000000d0: 4afd 36bd c1dd 86bc 80f4 88bd e721 903c
000000e0: 2736 293e 0160 e3bd 6c69 5c3d c0a0 1e3e
000000f0: 6794 653d 2cc8 9f3d b677 e13d d1ec bb3d
00000100: 4751 263d dd06 083e 0bcf 82bd 10df e53d
00000110: a9df d23d f198 663d eeeb 293d b5be c73c
00000120: 027e 2d3d b203 813d bf6d b8bd 9c75 9d3c
00000130: b17c a2bd df1e 1b3d 886b 1d3c 1b8e 7d3d
00000140: 69da adbd 7550 91bc ebb9 933c 3071 823d
00000150: 9ef4 6bbc c6b6 223e 69f7 c03c 9d6f 1b3e
00000160: 5080 07bb 7e03 ed3d f997 0b3d 38e1 793d
00000170: 2519 8abd 7042 cdb9 9d6e 003e 23a6 0abe
00000180: 6f4a 9c3d f867 7dbd 9b11 31be 4ed1 a03c
00000190: 0f51 cbbb 5be3 7fbd 5e10 a8bd fea5 f83c
000001a0: 65d7 a8bb 4342 d4bd f697 913d 70fe 02bd
000001b0: b85a b53d 2868 063e a50a 39be 2aae 57bc
000001c0: 683e 0d3e 28c1 21bd 996a 89bd a269 89bd
000001d0: e62e d83d 5963 113c d472 3abd bc52 573d
000001e0: c85a 4ebe 6548 f2bc d153 30bd 3249 1b3c
000001f0: e9eb 803c e735 dd3d 4681 a4bb 83d0 573c
00000200: b24d fa3c e5c9 63bc 4974 3bbd 26ed 2dbd
00000210: fbc9 49bd 58e7 9c3a eec0 823d 0791 ccbc
00000220: f190 a6bd 2742 be3c 2f58 953d c698 82bd
00000230: 370e 543d 1aec 893b 05d0 863c 09a3 a03d
00000240: 3fe2 863d db80 ddbc 2578 d0bc 5bb0 d2bd
00000250: 3633 9fbd 98a0 b6bc b34a 66bd 7ba2 32bc
00000260: 949f 83bd a256 6a3d de3c 5cbd d0fc aabc
00000270: 8dc0 8cbb 1519 14bd 4e81 e73c fd87 9f3d
00000280: 44f4 21bd 137a ad3d 3f00 cdbc 522d 833d
00000290: 1c58 2dbd 97cb 793d 068e 523b dcdc a43d
000002a0: b655 2e3d 6412 85bd c240 983d e99d 32bd
000002b0: 9ebc a5bd e9db 293d b7a2 26ba f61a 37bd
000002c0: 3f37 62bd db40 13bd 2212 e4ba 0c3f 813d
000002d0: 5aa0 4f3c 007a 233c 593e aa3d 2e6f c93c
000002e0: b356 c63c 123b 8dbd 88c0 aa3c 5dce 933b
000002f0: 7231 0dbd 1617 143d e1d7 46bc 7fa5 38bc
00000300: 54c6 813d babc 55bc f18b a93c c1e0 3cbd
00000310: fee5 8a3d 55a1 77bc 89a1 97bd 5bc8 08bd
00000320: 6b26 65bd c1d1 9d3d fc55 00bd ccf4 623d
00000330: abd8 98bd 7ef2 a53d dbb1 91bd eb45 a2bd
00000340: c1b5 8abd fe2e 8c3d bb53 853c e8b9 4cbd
00000350: 44ef 913d 7912 05bd 89aa 9e3d 73a2 ac3d
00000360: eaa9 b5bc 5320 df3c 9cb1 a4bd edbc bcbb
00000370: ede5 2dbd d94f 79bd 3231 86bd a5c3 4bbd
00000380: c47f 433c 64cf 993d e13e bfbd 7fa8 8ebd
00000390: bea4 b73d a3df d13b 3110 68bc 850b 86bc
000003a0: 1f5a a7bd 1bce 8f3c dacf 80bb e951 8cbd
000003b0: b003 e03c 0d88 78bd 8320 1e3d 0ab0 7dbd
000003c0: 1a58 9c3d b118 aabd f00f 413d dcca b33c
000003d0: e170 cbbc e3aa b6bd e7a0 9cbd 7828 a33d
000003e0: 6d7b 75bb 78d8 9dbd fb0b 533d c4ea a53d
000003f0: 7c73 c8bc 8ad2 2d3d 0885 2a3d 2265 d43c

lstm.weight_hh_l1 f4 [512, 128]
-0.024954386 0.011652453 -0.010376649 -0.07444712 0.021418165 -0.09567563 -0.021723827 0.099325046
0.04106792 0.034960315 0.024871305 0.046020627 0.02825697 -0.0072290623 -0.0324662 -0.060238272
-0.0019747172 0.02745625 0.04051001 -0.052797414 0.10096502 0.054170102 0.0004004842 0.019404834
0.012332056 -0.08027629 0.11705235 -0.011916126 0.0689864 0.09561174 -0.034269363 -0.120772354
-0.006194414 -0.09903619 0.045615975 -0.03128206 -0.0072095827 0.10774845 -0.011768799 0.11293624
-0.044368394 0.028514223 0.03370778 -0.028074102 0.12307784 -0.03492654 0.015107082 -0.0942834
-0.02840518 0.020461448 -0.068217225 0.009458778 0.029304035 0.016629077 -0.017603973 0.007816014
-0.05085389 -0.056022216 0.029043997 -0.03490965 0.07677716 -0.015911523 0.011106713 0.10038724
-0.035691973 0.0641934 0.055935636 0.05961165 0.017576234 0.02709307 -0.025528088 0.055341113
-0.014898987 -0.08895527 0.045195773 0.035384838 0.14829645 -0.08781603 -0.12145821 -0.10734459
-0.05500394 0.024544414 0.0020048555 -0.038710937 0.093290076 0.020842588 0.01682076 0.14682417
-0.07762217 0.008868099 0.059913322 0.06148028 0.005422916 -0.004351842 -0.032746147 -0.053819
-0.05843671 -0.12374564 0.1000891 0.039924074 0.11843582 0.047402006 -0.05572053 0.10212929
0.069342315 -0.04284335 0.01610468 -0.031273093 0.01911726 0.0245586 -0.0045619057 -0.01273726
0.09754998 0.11373762 0.01882664 -0.049421918 0.10081468 -0.023001598 -0.010658131 -0.01277679
0.049316254 0.08871559 0.05060148 0.075102404 0.08417323 -0.005852518 -0.060070302 0.05801052
-0.01622337 0.06046247 0.044577755 0.07167576 -0.07502805 -0.086170994 -0.036918186 0.07984504
0.07568054 0.058690485 -0.0074068676 0.02076811 -0.04500059 0.044229206 -0.07045435 0.07531661
-0.032757778 0.010560476 0.07271518 0.0082162 -0.060092457 -0.06946972 0.0055274097 0.04598042
0.045470577 -0.027240228 -0.047154225 -0.077872165 0.086130925 -0.038779013 -0.051519386 0.06092808
-0.05638079 -0.075900756 -0.037956975 -0.003342952 -0.05006369 0.037228692 0.008754641 0.062613405
-0.04582735 0.058991235 0.007406194 -0.08606083 -0.07034584 -0.06519286 -0.012907398 -0.054556817
0.050762847 0.038766615 0.07714544 -0.037216 0.003665285 -0.05546361 0.020026455 -0.04907805
0.03722897 -0.0080337105 0.025251372 -0.08801107 -0.008280576 -0.09135988 0.02802838 0.030790545
0.08418425 0.015653422 -0.043414548 -0.020611495 -0.06350307 -0.017337015 0.08387577 -0.06246051
-0.076824605 0.01312904 0.017803801 0.09095811 0.03447059 0.0020700388 0.09144534 0.07091944
0.0031615866 -0.05149062 0.026187638 0.025919346 0.06386319 -0.034549713 0.018354764 0.0011487596
0.09122758 -0.011755812 -0.07328779 0.030102955 -0.055758733 -0.04208689 0.025796581 -0.029108616
0.05094272 0.01258853 -0.027665883 -0.04218433 0.060216542 0.070443355 -0.07460666 0.03202685
0.045549907 0.06105732 0.034453202 -0.07509804 0.02787045 -0.041252445 0.055744614 -0.077485874
0.08948325 0.07945238 0.025785474 0.03999109 0.07041578 -0.019027332 0.010528647 0.05053957
0.070829056 0.08312453 -0.019948266 -0.015834019 0.06037974 -0.032580566 -0.022328079 -0.005702528
00000000: 246d ccbc eee9 3e3c d202 2abc bb77 98bd
00000010: 2675 af3c 96f1 c3bd 2bf6 b1bc ee6a cb3d
00000020: d636 283d 8c32 0f3d e8be cb3c 2080 3c3d
00000030: 297b e73c c5e1 ecbb 47fb 04bd 68bc 76bd
00000040: 426a 01bb eeeb e03c d3ed 253d 1a42 58bd
00000050: c0c6 ce3d 78e1 5d3d 14f8 d139 e3f6 9e3c
00000060: 640c 4a3c e567 a4bd 24b9 ef3d db3b 43bc
00000070: be48 8d3d 17d0 c33d 085e 0cbd 7f57 f7bd
00000080: 83fa cabb 7cd3 cabd d1d7 3a3d 9e21 00bd
00000090: 5d3e ecbb 38ab dc3d ecd1 40bc 1e4b e73d
000000a0: a2bb 35bd a996 e93c 2b11 0a3d a9fb e5bc
000000b0: 3c10 fc3d 220f 0fbd b283 773c a817 c1bd
000000c0: fbb1 e8bc c49e a73c 79b5 8bbd fef8 1a3c
000000d0: 040f f03c b439 883c 3536 90bc bd0e 003c
000000e0: 2b4c 50bd 8d77 65bd aded ed3c 6cfd 0ebd
000000f0: 583d 9d3d e258 82bc eef8 353c d397 cd3d
00000100: bf31 12bd d477 833d c41c 653d 582b 743d
00000110: 09fc 8f3c 49f2 dd3c 4820 d1bc 5dad 623d
00000120: e11a 74bc 2e2e b6bd 341f 393d b1ef 103d
00000130: 06db 173e e4d8 b3bd 15bf f8bd 7bd7 dbbd
00000140: d04b 61bd 5e11 c93c e563 033b 5c8f 1ebd
00000150: de0e bf3d 13be aa3c b1cb 893c 1359 163e
00000160: 5ff8 9ebd 814b 113c ac67 753d bfd2 7b3d
00000170: b7b2 b13b e699 8ebb d320 06bd 5071 5cbd
00000180: 555b 6fbd 5b6e fdbd 84fb cc3d 6d87 233d
00000190: 7b8e f23d 9b28 423d 363b 64bd 2929 d13d
000001a0: 5803 8e3d 827c 2fbd f6ed 833c 3718 00bd
000001b0: cd9b 9c3c 1e2f c93c 0a7c 95bb f1af 50bc
000001c0: 49c8 c73d 45ef e83d 533a 9a3c a36e 4abd
000001d0: ed77 ce3d d96d bcbc 719f 2ebc be55 51bc
000001e0: d7ff 493d 85b0 b53d 7f43 4f3d 4acf 993d
000001f0: 0463 ac3d 7bc6 bfbb 470c 76bd 709c 6d3d
00000200: dfe6 84bc 7fa7 773d 2a97 363d beca 923d
00000210: 4ea8 99bd 6b7a b0bd 8637 17bd cc85 a33d
00000220: 66fe 9a3d 6f65 703d 4fb5 f2bb e221 aa3c
00000230: 8a52 38bd af29 353d 5f4a 90bd 983f 9a3d
00000240: 052d 06bd d905 2d3c b2eb 943d 3e9d 063c
00000250: 8223 76bd 2446 8ebd 461f b53b f755 3c3d
00000260: 5b3f 3a3d e626 dfbc ca24 41bd 717b 9fbd
00000270: 6965 b03d bed6 1ebd fe05 53bd b98f 793d
00000280: 8bef 66bd db71 9bbd c678 1bbd 6e15 5bbb
00000290: 950f 4dbd 1d7d 183d a06f 0f3c 753b 803d
000002a0: 76b5 3bbd cba0 713d a9af f23b a940 b0bd
000002b0: 7b11 90bd d683 85bd 8d79 53bc f876 5fbd
000002c0: b4ec 4f3d bec9 1e3d 6efe 9d3d ce6f 18bd
000002d0: 4735 703b cf2d 63bd 850e a43c 1106 49bd
000002e0: 687d 183d d39f 03bc f7db ce3c 263f b4bd
000002f0: 41ab 07bc e41a bbbd c69b e53c 743c fc3c
00000300: cb68 ac3d 9b3b 803c 74d3 31bd 70d9 a8bc
00000310: e60d 82bd 5b06 8ebc 0fc7 ab3d 97d6 7fbd
00000320: 3856 9dbd 2f1b 573c 47d9 913c 3f48 ba3d
00000330: 0931 0d3d 7da9 073b b247 bb3d 363e 913d
00000340: 9f32 4f3b d4e7 52bd 7587 d63c cf54 d43c
00000350: b4ca 823d 0084 0dbd bb5c 963c fa91 963a
00000360: 87d5 ba3d 739b 40bc e917 96bd 799a f63c
00000370: 4563 64bd 4e63 2cbd 5a53 d33c 3175 eebc
00000380: 50a9 503d 1f40 4e3c 90a3 e2bc 7ac9 2cbd
00000390: 9fa5 763d 9b44 903d 60cb 98bd 962e 033d
000003a0: 8a92 3a3d 3e17 7a3d cd1e 0d3d 00cd 99bd
000003b0: 9250 e43c 53f8 28bd 7754 643d eab0 9ebd
000003c0: ff42 b73d eeb7 a23d 0f3c d33c b2cd 233d
000003d0: 2636 903d 35df 9bbc 5980 2c3c 9502 4f3d
000003e0: d30e 913d 323d aa3d 8c6a a3bc 58b6 81bc
000003f0: bf50 773d 3373 05bd 60e9 b6bc 46dc babb

lstm.bias_ih_l1 f4 [512]
-0.045469217 -0.03405654 0.040473945 0.043079082 -0.07789346 -0.023978425 -0.071671695 0.08164139
0.070962 0.06745902 0.02649996 -0.036970537 0.074664675 -0.07010956 -0.06481885 -0.07058865
0.0015860132 -0.03583463 -0.018563392 -0.011182357 -0.030929483 0.07258652 0.027256075 0.048746873
0.08795332 -0.06594258 -0.07890648 -0.08891502 0.044727292 -0.08420357 -0.015273577 0.06647667
0.0861379 -0.06808024 0.057808105 0.04956429 0.044808418 -0.075612605 -0.055904843 0.054738887
-0.09761177 0.002539432 0.007867163 0.020791024 0.047393594 -0.0013127609 0.06967524 0.061633047
-0.027645212 -0.026504437 -0.07404848 -0.054402165 -0.038912773 -0.0585824 0.013379314 0.08453434
-0.06332311 -0.045612853 -0.027639983 -0.040849037 -0.047396008 0.028627565 -0.069841415 0.023608826
0.08184551 0.0055512064 -0.021971613 -0.07168669 0.02241808 -0.044482935 0.023296116 0.024009494
-0.043703336 0.096184246 0.043384124 0.0054289103 -0.07309231 0.067180716 0.03880004 -0.01691148
-0.006524321 5.8896665e-05 -0.048065573 -0.05105001 0.05769386 0.0017909374 0.014483106 -0.059404243
-0.022579756 0.0650853 -0.03269071 0.043774344 -0.01158661 0.017462006 0.022259766 -0.031162772
0.030100446 0.007571069 -0.032919746 -0.008374467 0.02878378 0.04167952 -0.07157573 -0.08031349
0.038503032 0.044994496 -0.07184132 -0.0035722458 -0.057923548 -0.026016816 0.028629005 -0.03909864
0.008595538 -0.009963537 -0.07998001 -0.07303036 0.051882353 0.056456402 -0.010041804 0.0795518
-0.09074388 0.084944844 0.07764508 0.08204882 0.06029495 -0.09798777 -0.06700156 -0.029895727
0.0032611887 0.0033426003 0.063772485 -0.06576425 -0.03848034 0.019338096 0.06944748 -0.07210112
-0.026434008 -0.0704209 -0.0875301 0.031944025 -0.010669998 -0.050298125 0.04853425 -0.029804174
-0.08041726 -0.030689705 0.02035962 -0.006515176 0.047974836 -0.022857755 -0.027399652 -0.07442477
0.07256463 -0.018618936 0.05396663 0.002492922 -0.07480038 -0.08302922 -0.03654847 0.06834565
0.06133255 0.00019858377 0.071772836 -0.019984683 0.062647566 -0.0062615313 0.01749066 -0.08628798
-0.067341775 -0.05758371 0.0643697 -0.039522946 0.027099151 -0.036705486 -0.06410138 -0.049461216
0.045416962 -0.0851569 -0.039522495 -0.07430958 -0.035798997 -0.0025826518 -0.029561557 -0.07602781
0.008627516 0.0076681837 0.044155285 0.043708082 -0.057868447 -0.092142515 -0.0019981049 0.055554446
-0.008364523 0.045641784 0.013226326 -0.03764485 -0.021633241 0.007657367 0.0756037 -0.08788862
-0.08704424 -0.06552959 0.013093762 -0.002658093 -0.02669611 -0.0645573 0.02596786 -0.0008701456
-0.0059625655 0.022374311 -0.05390346 -0.029755058 -0.085465476 -0.065329075 -0.007998169 0.02093792
-0.03852279 0.027609933 -0.068447195 -0.01523445 -0.063665725 -0.060105838 0.047476828 0.039389495
0.08465187 0.0019682331 0.07061481 -0.017500538 0.004658461 0.00307133 -0.007929718 0.037771855
-0.05479987 -0.06869795 -0.08972213 -0.084921256 0.040284645 0.008402726 -0.015983284 0.061673693
-0.08766969 0.043718565 0.040899888 -0.07080583 0.010395548 0.044645872 0.00313906 -0.033050448
0.041066602 -0.007897724 0.069192946 -0.03375398 -0.033541795 0.05319731 0.06344164 0.04404911
00000000: ee3d 3abd df7e 0bbd 02c8 253d b173 303d
00000010: 9b86 9fbd 676e c4bc 9cc8 92bd 9a33 a73d
00000020: 8654 913d f427 8a3d 7216 d93c 6b6e 17bd
00000030: cbe9 983d 9a95 8fbd bfbf 84bd c890 90bd
00000040: c6e1 cf3a 55c7 12bd 4112 98bc 3436 37bc
00000050: d45f fdbc 3ea8 943d 2248 df3c cdaa 473d
00000060: df20 b43d e70c 87bd b899 a1bd 1419 b6bd
00000070: f733 373d ec72 acbd 063e 7abc ec24 883d
00000080: 1169 b03d a76d 8bbd 31c8 6c3d ed03 4b3d
00000090: 0889 373d c8da 9abd 7afc 64bd e235 603d
000000a0: aee8 c7bd 996c 263b 46e5 003c f051 aa3c
000000b0: c91f 423d f210 acba e4b1 8e3d ef72 7c3d
000000c0: 3678 e2bc d51f d9bc bba6 97bd ced4 5ebd
000000d0: 0063 1fbd 19f4 6fbd e934 5b3c 5720 ad3d
000000e0: 8caf 81bd 8bd4 3abd 3f6d e2bc 5251 27bd
000000f0: 5122 42bd 5b84 ea3c 0409 8fbd 4c67 c13c
00000100: 9e9e a73d e5e6 b53b d0fd b3bc 79d0 92bd
00000110: 1fa6 b73c bd33 36bd 7fd7 be3c 8faf c43c
00000120: 4502 33bd 3ffc c43d 8db3 313d 00e5 b13b
00000130: 6cb1 95bd 0b96 893d caec 1e3d f289 8abc
00000140: f9c9 d5bb d007 7738 68e0 44bd d119 51bd
00000150: 6650 6c3d e3bd ea3a 8d4a 6d3c dd51 73bd
00000160: 2ef9 b8bc 714b 853d b2e6 05bd ba4c 333d
00000170: c4d5 3dbc 7b0c 8f3c 1d5a b63c 1249 ffbc
00000180: 3695 f63c bb16 f83b dbd6 06bd 0f35 09bc
00000190: f6cb eb3c 25b8 2a3d 4c96 92bd 667b a4bd
000001a0: 5bb5 1d3d 264c 383d 8b21 93bd 571c 6abb
000001b0: 3e41 6dbd 3821 d5bc 6087 ea3c e525 20bd
000001c0: 4dd4 0c3c 1a3e 23bc 8fcc a3bd f190 95bd
000001d0: 9782 543d d43e 673d 6186 24bc 0eec a23d
000001e0: edd7 b9bd 90f7 ad3d 6204 9f3d 3609 a83d
000001f0: d6f7 763d d0ad c8bd 1d38 89bd e2e7 f4bc
00000200: abb9 553b 870f 5b3b 269b 823d 68af 86bd
00000210: 909d 1dbd ed6a 9e3c 7b3a 8e3d c1a9 93bd
00000220: 228c d8bc d538 90bd fb42 b3bd bdd7 023d
00000230: 37d1 2ebc 6805 4ebd dacb 463d e227 f4bc
00000240: ceb1 a4bd fa68 fbbc 38c9 a63c 427d d5bb
00000250: 4381 443d 3040 bbbc 3c75 e0bc 046c 98bd
00000260: c49c 943d bd86 98bc 1d0c 5d3d 4a60 233b
00000270: f130 99bd 390b aabd d9b3 15bd cef8 8b3d
00000280: d737 7b3d ed3a 5039 a3fd 923d ebb6 a3bc
00000290: 5e4d 803d 882d cdbb 9348 8f3c c1b7 b0bd
000002a0: 7cea 89bd e5dc 6bbd 43d4 833d d0e2 21bd
000002b0: 0aff dd3c 7e58 16bd 9647 83bd d897 4abd
000002c0: 2307 3a3d be66 aebd 57e2 21bd 9f2f 98bd
000002d0: f8a1 12bd b541 29bb 142b f2bc 78b4 9bbd
000002e0: 6d5a 0d3c 6345 fb3b 2cdc 343d 3f07 333d
000002f0: 7707 6dbd 37b5 bcbd a3f2 02bb 0f8d 633d
00000300: 5a0b 09bc e1f2 3a3d 3bb3 583c 7c31 1abd
00000310: 3238 b1bc a6ea fa3b 1dd6 9a3d f3fe b3bd
00000320: 4044 b2bd 6134 86bd 3887 563c 6733 2ebb
00000330: cdb1 dabc 9e36 84bd 8dba d43c 7c1a 64ba
00000340: a061 c3bb 554a b73c e0c9 5cbd e1c0 f3bc
00000350: 8608 afbd 40cb 85bd c10a 03bc 0086 ab3c
00000360: 13ca 1dbd 3a2e e23c 0b2e 8cbd ea99 79bc
00000370: 2d63 82bd 8a31 76bd 1077 423d e156 213d
00000380: f65d ad3d 79fd 003b 7f9e 903d 4a5d 8fbc
00000390: 01a6 983b 5e48 493b a6eb 01bc a9b6 1a3d
000003a0: d475 60bd 83b1 8cbd 3cc0 b7bd 32eb adbd
000003b0: 8301 253d 96ab 093c 60ef 82bc 8e9d 7c3d
000003c0: 2b8c b3bd 3d12 333d a486 273d a602 91bd
000003d0: 1752 2a3c 97de 363d b0b8 4d3b e85f 07bd
000003e0: 7435 283d 7565 01bc 08b5 8d3d 9d41 0abd
000003f0: 1f63 09bd 6ce5 593d b1ed 813d d76c 343d
